…
loading  /home/jasencakova/dataset/cells/priamy_kanal/sim_2xKSin1_D_hct15_seed5_rigid31_2/rbc152_sim_2xKSin1_D_hct15_seed5_rigid31_2.dat
shape =  (3, 733)
loading  /home/jasencakova/dataset/cells/priamy_kanal/sim_2xKSin1_D_hct15_seed5_rigid31_2/rbc153_sim_2xKSin1_D_hct15_seed5_rigid31_2.dat
shape =  (3, 733)
shortest_length =  733
data_shape      =  (154, 733, 3)








dataset summary : 

training_dats shape    =  (154, 597, 3)
testing_dats shape    =  (154, 733, 3)
training_count  =  9285738
testing_count   =  112882
channels_count  =  3
sequence_length =  128
classes_count   =   2
batch(32) tensor shape =  torch.Size([32, 3, 128]) torch.Size([32, 2])





model
Sequential(
  (0): Conv1d(3, 16, kernel_size=(3,), stride=(2,), padding=(1,))
  (1): ReLU()
  (2): ResidualBlock(
    (conv0): Conv1d(16, 16, kernel_size=(3,), stride=(1,), padding=(1,))
    (act0): ReLU()
    (conv1): Conv1d(16, 16, kernel_size=(3,), stride=(1,), padding=(1,))
    (act1): ReLU()
  )
  (3): ResidualBlock(
    (conv0): Conv1d(16, 16, kernel_size=(3,), stride=(1,), padding=(1,))
    (act0): ReLU()
    (conv1): Conv1d(16, 16, kernel_size=(3,), stride=(1,), padding=(1,))
    (act1): ReLU()
  )
  (4): Conv1d(16, 32, kernel_size=(3,), stride=(2,), padding=(1,))
  (5): ReLU()
  (6): ResidualBlock(
    (conv0): Conv1d(32, 32, kernel_size=(3,), stride=(1,), padding=(1,))
    (act0): ReLU()
    (conv1): Conv1d(32, 32, kernel_size=(3,), stride=(1,), padding=(1,))
    (act1): ReLU()
  )
  (7): ResidualBlock(
    (conv0): Conv1d(32, 32, kernel_size=(3,), stride=(1,), padding=(1,))
    (act0): ReLU()
    (conv1): Conv1d(32, 32, kernel_size=(3,), stride=(1,), padding=(1,))
    (act1): ReLU()
  )
  (8): Conv1d(32, 64, kernel_size=(3,), stride=(2,), padding=(1,))
  (9): ReLU()
  (10): ResidualBlock(
    (conv0): Conv1d(64, 64, kernel_size=(3,), stride=(1,), padding=(1,))
    (act0): ReLU()
    (conv1): Conv1d(64, 64, kernel_size=(3,), stride=(1,), padding=(1,))
    (act1): ReLU()
  )
  (11): ResidualBlock(
    (conv0): Conv1d(64, 64, kernel_size=(3,), stride=(1,), padding=(1,))
    (act0): ReLU()
    (conv1): Conv1d(64, 64, kernel_size=(3,), stride=(1,), padding=(1,))
    (act1): ReLU()
  )
  (12): Conv1d(64, 128, kernel_size=(3,), stride=(2,), padding=(1,))
  (13): ReLU()
  (14): ResidualBlock(
    (conv0): Conv1d(128, 128, kernel_size=(3,), stride=(1,), padding=(1,))
    (act0): ReLU()
    (conv1): Conv1d(128, 128, kernel_size=(3,), stride=(1,), padding=(1,))
    (act1): ReLU()
  )
  (15): ResidualBlock(
    (conv0): Conv1d(128, 128, kernel_size=(3,), stride=(1,), padding=(1,))
    (act0): ReLU()
    (conv1): Conv1d(128, 128, kernel_size=(3,), stride=(1,), padding=(1,))
    (act1): ReLU()
  )
  (16): Flatten()
  (17): Linear(in_features=1024, out_features=2, bias=True)
)loading  /home/jasencakova/dataset/cells/priamy_kanal/sim_2xKSin1_D_hct15_seed4_rigid31_1/rbc0_sim_2xKSin1_D_hct15_seed4_rigid31_1.dat
shape =  (3, 597)
loading  /home/jasencakova/dataset/cells/priamy_kanal/sim_2xKSin1_D_hct15_seed4_rigid31_1/rbc1_sim_2xKSin1_D_hct15_seed4_rigid31_1.dat
shape =  (3, 597)
loading  /home/jasencakova/dataset/cells/priamy_kanal/sim_2xKSin1_D_hct15_seed4_rigid31_1/rbc2_sim_2xKSin1_D_hct15_seed4_rigid31_1.dat
…
loading  /home/jasencakova/dataset/cells/priamy_kanal/sim_2xKSin1_D_hct15_seed5_rigid31_2/rbc152_sim_2xKSin1_D_hct15_seed5_rigid31_2.dat
shape =  (3, 733)
loading  /home/jasencakova/dataset/cells/priamy_kanal/sim_2xKSin1_D_hct15_seed5_rigid31_2/rbc153_sim_2xKSin1_D_hct15_seed5_rigid31_2.dat
shape =  (3, 733)
shortest_length =  733
data_shape      =  (154, 733, 3)








dataset summary : 

training_dats shape    =  (154, 597, 3)
testing_dats shape    =  (154, 733, 3)
training_count  =  9285738
testing_count   =  112882
channels_count  =  3
sequence_length =  128
classes_count   =   2
batch(32) tensor shape =  torch.Size([32, 3, 128]) torch.Size([32, 2])





model
Sequential(
  (0): Conv1d(3, 32, kernel_size=(3,), stride=(2,), padding=(1,))
  (1): ReLU()
  (2): ResidualBlock(
    (conv0): Conv1d(32, 32, kernel_size=(3,), stride=(1,), padding=(1,))
    (act0): ReLU()
    (conv1): Conv1d(32, 32, kernel_size=(3,), stride=(1,), padding=(1,))
    (act1): ReLU()
  )
  (3): ResidualBlock(
    (conv0): Conv1d(32, 32, kernel_size=(3,), stride=(1,), padding=(1,))
    (act0): ReLU()
    (conv1): Conv1d(32, 32, kernel_size=(3,), stride=(1,), padding=(1,))
    (act1): ReLU()
  )
  (4): Dropout(p=0.01, inplace=False)
  (5): Conv1d(32, 64, kernel_size=(3,), stride=(2,), padding=(1,))
  (6): ReLU()
  (7): ResidualBlock(
    (conv0): Conv1d(64, 64, kernel_size=(3,), stride=(1,), padding=(1,))
    (act0): ReLU()
    (conv1): Conv1d(64, 64, kernel_size=(3,), stride=(1,), padding=(1,))
    (act1): ReLU()
  )
  (8): ResidualBlock(
    (conv0): Conv1d(64, 64, kernel_size=(3,), stride=(1,), padding=(1,))
    (act0): ReLU()
    (conv1): Conv1d(64, 64, kernel_size=(3,), stride=(1,), padding=(1,))
    (act1): ReLU()
  )
  (9): Dropout(p=0.01, inplace=False)
  (10): Conv1d(64, 64, kernel_size=(3,), stride=(2,), padding=(1,))
  (11): ReLU()
  (12): ResidualBlock(
    (conv0): Conv1d(64, 64, kernel_size=(3,), stride=(1,), padding=(1,))
    (act0): ReLU()
    (conv1): Conv1d(64, 64, kernel_size=(3,), stride=(1,), padding=(1,))
    (act1): ReLU()
  )
  (13): ResidualBlock(
    (conv0): Conv1d(64, 64, kernel_size=(3,), stride=(1,), padding=(1,))
    (act0): ReLU()
    (conv1): Conv1d(64, 64, kernel_size=(3,), stride=(1,), padding=(1,))
    (act1): ReLU()
  )
  (14): Dropout(p=0.01, inplace=False)
  (15): Conv1d(64, 128, kernel_size=(3,), stride=(2,), padding=(1,))
  (16): ReLU()
  (17): ResidualBlock(
    (conv0): Conv1d(128, 128, kernel_size=(3,), stride=(1,), padding=(1,))
    (act0): ReLU()
    (conv1): Conv1d(128, 128, kernel_size=(3,), stride=(1,), padding=(1,))
    (act1): ReLU()
  )
  (18): ResidualBlock(
    (conv0): Conv1d(128, 128, kernel_size=(3,), stride=(1,), padding=(1,))
    (act0): ReLU()
    (conv1): Conv1d(128, 128, kernel_size=(3,), stride=(1,), padding=(1,))
    (act1): ReLU()
  )
  (19): Dropout(p=0.01, inplace=False)
  (20): Flatten()
  (21): Linear(in_features=1024, out_features=2, bias=True)
)loading  /home/jasencakova/dataset/cells/priamy_kanal/sim_2xKSin1_D_hct15_seed4_rigid31_1/rbc0_sim_2xKSin1_D_hct15_seed4_rigid31_1.dat
shape =  (3, 597)
loading  /home/jasencakova/dataset/cells/priamy_kanal/sim_2xKSin1_D_hct15_seed4_rigid31_1/rbc1_sim_2xKSin1_D_hct15_seed4_rigid31_1.dat
shape =  (3, 597)
loading  /home/jasencakova/dataset/cells/priamy_kanal/sim_2xKSin1_D_hct15_seed4_rigid31_1/rbc2_sim_2xKSin1_D_hct15_seed4_rigid31_1.dat
…
loading  /home/jasencakova/dataset/cells/priamy_kanal/sim_2xKSin1_D_hct15_seed5_rigid31_2/rbc152_sim_2xKSin1_D_hct15_seed5_rigid31_2.dat
shape =  (3, 733)
loading  /home/jasencakova/dataset/cells/priamy_kanal/sim_2xKSin1_D_hct15_seed5_rigid31_2/rbc153_sim_2xKSin1_D_hct15_seed5_rigid31_2.dat
shape =  (3, 733)
shortest_length =  733
data_shape      =  (154, 733, 3)








dataset summary : 

training_dats shape    =  (154, 597, 3)
testing_dats shape    =  (154, 733, 3)
training_count  =  9285738
testing_count   =  112882
channels_count  =  3
sequence_length =  128
classes_count   =   2
batch(32) tensor shape =  torch.Size([32, 3, 128]) torch.Size([32, 2])





model
Sequential(
  (0): Conv1d(3, 32, kernel_size=(3,), stride=(2,), padding=(1,))
  (1): ReLU()
  (2): Conv1d(32, 64, kernel_size=(3,), stride=(2,), padding=(1,))
  (3): ReLU()
  (4): Conv1d(64, 64, kernel_size=(3,), stride=(2,), padding=(1,))
  (5): ReLU()
  (6): Conv1d(64, 128, kernel_size=(3,), stride=(2,), padding=(1,))
  (7): ReLU()
  (8): Dropout(p=0.5, inplace=False)
  (9): Flatten()
  (10): Linear(in_features=1024, out_features=2, bias=True)
)



0 85.05003506395941 82.8656462585034 0.12067363 0.14506814 0.021975439 0.013698352 62.57 





=================================================
new best net in 0
TRAINING result
accuracy   = 85.05 [%]
hit_count  = 7897651
miss_count = 1388237

class_accuracy = 98.477%   31.783%   


confusion_matrix = 
7303494	 1275257	 
112980	 594157	 



TESTING result
…
