…
class_accuracy = 99.618%   92.018%   


confusion_matrix = 
85346	 1743	 
326	 20105	 




31 99.99821231694125 98.13616071428571 1.5787502e-05 0.016752018 0.00019817808 0.007880189 171.79 

shape =  (21, 698)
698
shortest_length =  698
data_shape      =  (154, 698, 21)








dataset summary : 

training_dats shape    =  (154, 989, 21)
testing_dats shape    =  (154, 698, 21)
training_count  =  15382906
testing_count   =  107492
channels_count  =  21
sequence_length =  128
classes_count   =   2
batch(32) tensor shape =  torch.Size([32, 21, 128]) torch.Size([32, 2])





model
Sequential(
  (0): Conv1d(21, 32, kernel_size=(3,), stride=(2,), padding=(1,))
  (1): ReLU()
  (2): ResidualBlock(
    (conv0): Conv1d(32, 32, kernel_size=(3,), stride=(1,), padding=(1,))
    (act0): ReLU()
    (conv1): Conv1d(32, 32, kernel_size=(3,), stride=(1,), padding=(1,))
    (act1): ReLU()
  )
  (3): ResidualBlock(
    (conv0): Conv1d(32, 32, kernel_size=(3,), stride=(1,), padding=(1,))
    (act0): ReLU()
    (conv1): Conv1d(32, 32, kernel_size=(3,), stride=(1,), padding=(1,))
    (act1): ReLU()
  )
  (4): Dropout(p=0.01, inplace=False)
  (5): Conv1d(32, 64, kernel_size=(3,), stride=(2,), padding=(1,))
  (6): ReLU()
  (7): ResidualBlock(
    (conv0): Conv1d(64, 64, kernel_size=(3,), stride=(1,), padding=(1,))
    (act0): ReLU()
    (conv1): Conv1d(64, 64, kernel_size=(3,), stride=(1,), padding=(1,))
    (act1): ReLU()
  )
  (8): ResidualBlock(
    (conv0): Conv1d(64, 64, kernel_size=(3,), stride=(1,), padding=(1,))
    (act0): ReLU()
    (conv1): Conv1d(64, 64, kernel_size=(3,), stride=(1,), padding=(1,))
    (act1): ReLU()
  )
  (9): Dropout(p=0.01, inplace=False)
  (10): Conv1d(64, 64, kernel_size=(3,), stride=(2,), padding=(1,))
  (11): ReLU()
  (12): ResidualBlock(
    (conv0): Conv1d(64, 64, kernel_size=(3,), stride=(1,), padding=(1,))
    (act0): ReLU()
    (conv1): Conv1d(64, 64, kernel_size=(3,), stride=(1,), padding=(1,))
    (act1): ReLU()
  )
  (13): ResidualBlock(
    (conv0): Conv1d(64, 64, kernel_size=(3,), stride=(1,), padding=(1,))
    (act0): ReLU()
    (conv1): Conv1d(64, 64, kernel_size=(3,), stride=(1,), padding=(1,))
    (act1): ReLU()
  )
  (14): Dropout(p=0.01, inplace=False)
  (15): Conv1d(64, 128, kernel_size=(3,), stride=(2,), padding=(1,))
  (16): ReLU()
  (17): ResidualBlock(
    (conv0): Conv1d(128, 128, kernel_size=(3,), stride=(1,), padding=(1,))
    (act0): ReLU()
    (conv1): Conv1d(128, 128, kernel_size=(3,), stride=(1,), padding=(1,))
    (act1): ReLU()
  )
  (18): ResidualBlock(
    (conv0): Conv1d(128, 128, kernel_size=(3,), stride=(1,), padding=(1,))
    (act0): ReLU()
    (conv1): Conv1d(128, 128, kernel_size=(3,), stride=(1,), padding=(1,))
    (act1): ReLU()
  )
  (19): Dropout(p=0.01, inplace=False)
  (20): Flatten()
  (21): Linear(in_features=1024, out_features=2, bias=True)
)



0 94.89588533865867 95.90122767857143 0.039648585 0.03333655 0.03155404 0.009491237 222.92 





=================================================
new best net in 0
TRAINING result
accuracy   = 94.896 [%]
hit_count  = 14597872
miss_count = 785168

class_accuracy = 98.986%   78.671%   


confusion_matrix = 
12161393	 660586	 
124582	 2436479	 



TESTING result
…
