…
loading  /home/jasencakova/dataset/cells/priamy_kanal/sim_2xKSin1_D_hct15_seed4_rigid31_1/rbc152_sim_2xKSin1_D_hct15_seed4_rigid31_1.dat
shape =  (3, 597)
loading  /home/jasencakova/dataset/cells/priamy_kanal/sim_2xKSin1_D_hct15_seed4_rigid31_1/rbc153_sim_2xKSin1_D_hct15_seed4_rigid31_1.dat
shape =  (3, 597)
shortest_length =  597
data_shape      =  (154, 597, 3)








dataset summary : 

training_dats shape    =  (154, 733, 3)
testing_dats shape    =  (154, 597, 3)
training_count  =  11401082
testing_count   =  91938
channels_count  =  3
sequence_length =  128
classes_count   =   2
batch(32) tensor shape =  torch.Size([32, 3, 128]) torch.Size([32, 2])





model
Sequential(
  (0): Conv1d(3, 32, kernel_size=(3,), stride=(2,), padding=(1,))
  (1): ReLU()
  (2): ResidualBlock(
    (conv0): Conv1d(32, 32, kernel_size=(3,), stride=(1,), padding=(1,))
    (act0): ReLU()
    (conv1): Conv1d(32, 32, kernel_size=(3,), stride=(1,), padding=(1,))
    (act1): ReLU()
  )
  (3): ResidualBlock(
    (conv0): Conv1d(32, 32, kernel_size=(3,), stride=(1,), padding=(1,))
    (act0): ReLU()
    (conv1): Conv1d(32, 32, kernel_size=(3,), stride=(1,), padding=(1,))
    (act1): ReLU()
  )
  (4): Conv1d(32, 64, kernel_size=(3,), stride=(2,), padding=(1,))
  (5): ReLU()
  (6): ResidualBlock(
    (conv0): Conv1d(64, 64, kernel_size=(3,), stride=(1,), padding=(1,))
    (act0): ReLU()
    (conv1): Conv1d(64, 64, kernel_size=(3,), stride=(1,), padding=(1,))
    (act1): ReLU()
  )
  (7): ResidualBlock(
    (conv0): Conv1d(64, 64, kernel_size=(3,), stride=(1,), padding=(1,))
    (act0): ReLU()
    (conv1): Conv1d(64, 64, kernel_size=(3,), stride=(1,), padding=(1,))
    (act1): ReLU()
  )
  (8): Conv1d(64, 64, kernel_size=(3,), stride=(2,), padding=(1,))
  (9): ReLU()
  (10): ResidualBlock(
    (conv0): Conv1d(64, 64, kernel_size=(3,), stride=(1,), padding=(1,))
    (act0): ReLU()
    (conv1): Conv1d(64, 64, kernel_size=(3,), stride=(1,), padding=(1,))
    (act1): ReLU()
  )
  (11): ResidualBlock(
    (conv0): Conv1d(64, 64, kernel_size=(3,), stride=(1,), padding=(1,))
    (act0): ReLU()
    (conv1): Conv1d(64, 64, kernel_size=(3,), stride=(1,), padding=(1,))
    (act1): ReLU()
  )
  (12): Conv1d(64, 128, kernel_size=(3,), stride=(2,), padding=(1,))
  (13): ReLU()
  (14): ResidualBlock(
    (conv0): Conv1d(128, 128, kernel_size=(3,), stride=(1,), padding=(1,))
    (act0): ReLU()
    (conv1): Conv1d(128, 128, kernel_size=(3,), stride=(1,), padding=(1,))
    (act1): ReLU()
  )
  (15): ResidualBlock(
    (conv0): Conv1d(128, 128, kernel_size=(3,), stride=(1,), padding=(1,))
    (act0): ReLU()
    (conv1): Conv1d(128, 128, kernel_size=(3,), stride=(1,), padding=(1,))
    (act1): ReLU()
  )
  (16): Dropout(p=0.5, inplace=False)
  (17): Flatten()
  (18): Linear(in_features=1024, out_features=2, bias=True)
)loading  /home/jasencakova/dataset/cells/priamy_kanal/sim_2xKSin1_D_hct15_seed5_rigid31_2/rbc0_sim_2xKSin1_D_hct15_seed5_rigid31_2.dat
shape =  (3, 733)
loading  /home/jasencakova/dataset/cells/priamy_kanal/sim_2xKSin1_D_hct15_seed5_rigid31_2/rbc1_sim_2xKSin1_D_hct15_seed5_rigid31_2.dat
shape =  (3, 733)
loading  /home/jasencakova/dataset/cells/priamy_kanal/sim_2xKSin1_D_hct15_seed5_rigid31_2/rbc2_sim_2xKSin1_D_hct15_seed5_rigid31_2.dat
…
loading  /home/jasencakova/dataset/cells/priamy_kanal/sim_2xKSin1_D_hct15_seed4_rigid31_1/rbc152_sim_2xKSin1_D_hct15_seed4_rigid31_1.dat
shape =  (3, 597)
loading  /home/jasencakova/dataset/cells/priamy_kanal/sim_2xKSin1_D_hct15_seed4_rigid31_1/rbc153_sim_2xKSin1_D_hct15_seed4_rigid31_1.dat
shape =  (3, 597)
shortest_length =  597
data_shape      =  (154, 597, 3)








dataset summary : 

training_dats shape    =  (154, 733, 3)
testing_dats shape    =  (154, 597, 3)
training_count  =  11401082
testing_count   =  91938
channels_count  =  3
sequence_length =  128
classes_count   =   2
batch(32) tensor shape =  torch.Size([32, 3, 128]) torch.Size([32, 2])





model
Sequential(
  (0): Conv1d(3, 32, kernel_size=(3,), stride=(2,), padding=(1,))
  (1): ReLU()
  (2): Dropout(p=0.01, inplace=False)
  (3): Conv1d(32, 64, kernel_size=(3,), stride=(2,), padding=(1,))
  (4): ReLU()
  (5): Dropout(p=0.01, inplace=False)
  (6): Conv1d(64, 64, kernel_size=(3,), stride=(2,), padding=(1,))
  (7): ReLU()
  (8): Dropout(p=0.01, inplace=False)
  (9): Conv1d(64, 128, kernel_size=(3,), stride=(2,), padding=(1,))
  (10): ReLU()
  (11): Dropout(p=0.01, inplace=False)
  (12): Flatten()
  (13): Linear(in_features=1024, out_features=2, bias=True)
)



0 84.3585894697548 81.52777777777777 0.12963583 0.13967423 0.015642658 0.015059843 96.46 





=================================================
new best net in 0
TRAINING result
accuracy   = 84.359 [%]
hit_count  = 9617905
miss_count = 1783311

class_accuracy = 98.991%   26.342%   


confusion_matrix = 
9012984	 1691471	 
91840	 604921	 



TESTING result
…
loading  /home/jasencakova/dataset/cells/priamy_kanal/sim_2xKSin1_D_hct15_seed4_rigid62_1/rbc152_sim_2xKSin1_D_hct15_seed4_rigid62_1.dat
shape =  (3, 189)
loading  /home/jasencakova/dataset/cells/priamy_kanal/sim_2xKSin1_D_hct15_seed4_rigid62_1/rbc153_sim_2xKSin1_D_hct15_seed4_rigid62_1.dat
shape =  (3, 189)
shortest_length =  189
data_shape      =  (154, 189, 3)








dataset summary : 

training_dats shape    =  (154, 597, 3)
testing_dats shape    =  (154, 189, 3)
training_count  =  9285738
testing_count   =  29106
channels_count  =  3
sequence_length =  128
classes_count   =   2
batch(32) tensor shape =  torch.Size([32, 3, 128]) torch.Size([32, 2])





model
Sequential(
  (0): Conv1d(3, 16, kernel_size=(3,), stride=(2,), padding=(1,))
  (1): ReLU()
  (2): ResidualBlock(
    (conv0): Conv1d(16, 16, kernel_size=(3,), stride=(1,), padding=(1,))
    (act0): ReLU()
    (conv1): Conv1d(16, 16, kernel_size=(3,), stride=(1,), padding=(1,))
    (act1): ReLU()
  )
  (3): ResidualBlock(
    (conv0): Conv1d(16, 16, kernel_size=(3,), stride=(1,), padding=(1,))
    (act0): ReLU()
    (conv1): Conv1d(16, 16, kernel_size=(3,), stride=(1,), padding=(1,))
    (act1): ReLU()
  )
  (4): Conv1d(16, 32, kernel_size=(3,), stride=(2,), padding=(1,))
  (5): ReLU()
  (6): ResidualBlock(
    (conv0): Conv1d(32, 32, kernel_size=(3,), stride=(1,), padding=(1,))
    (act0): ReLU()
    (conv1): Conv1d(32, 32, kernel_size=(3,), stride=(1,), padding=(1,))
    (act1): ReLU()
  )
  (7): ResidualBlock(
    (conv0): Conv1d(32, 32, kernel_size=(3,), stride=(1,), padding=(1,))
    (act0): ReLU()
    (conv1): Conv1d(32, 32, kernel_size=(3,), stride=(1,), padding=(1,))
    (act1): ReLU()
  )
  (8): Conv1d(32, 64, kernel_size=(3,), stride=(2,), padding=(1,))
  (9): ReLU()
  (10): ResidualBlock(
    (conv0): Conv1d(64, 64, kernel_size=(3,), stride=(1,), padding=(1,))
    (act0): ReLU()
    (conv1): Conv1d(64, 64, kernel_size=(3,), stride=(1,), padding=(1,))
    (act1): ReLU()
  )
  (11): ResidualBlock(
    (conv0): Conv1d(64, 64, kernel_size=(3,), stride=(1,), padding=(1,))
    (act0): ReLU()
    (conv1): Conv1d(64, 64, kernel_size=(3,), stride=(1,), padding=(1,))
    (act1): ReLU()
  )
  (12): Conv1d(64, 128, kernel_size=(3,), stride=(2,), padding=(1,))
  (13): ReLU()
  (14): ResidualBlock(
    (conv0): Conv1d(128, 128, kernel_size=(3,), stride=(1,), padding=(1,))
    (act0): ReLU()
    (conv1): Conv1d(128, 128, kernel_size=(3,), stride=(1,), padding=(1,))
    (act1): ReLU()
  )
  (15): ResidualBlock(
    (conv0): Conv1d(128, 128, kernel_size=(3,), stride=(1,), padding=(1,))
    (act0): ReLU()
    (conv1): Conv1d(128, 128, kernel_size=(3,), stride=(1,), padding=(1,))
    (act1): ReLU()
  )
  (16): Flatten()
  (17): Linear(in_features=1024, out_features=2, bias=True)
)loading  /home/jasencakova/dataset/cells/priamy_kanal/sim_2xKSin1_D_hct15_seed4_rigid31_1/rbc0_sim_2xKSin1_D_hct15_seed4_rigid31_1.dat
shape =  (3, 597)
loading  /home/jasencakova/dataset/cells/priamy_kanal/sim_2xKSin1_D_hct15_seed4_rigid31_1/rbc1_sim_2xKSin1_D_hct15_seed4_rigid31_1.dat
shape =  (3, 597)
loading  /home/jasencakova/dataset/cells/priamy_kanal/sim_2xKSin1_D_hct15_seed4_rigid31_1/rbc2_sim_2xKSin1_D_hct15_seed4_rigid31_1.dat
…
